…
清楚模型的具体的工作原理及其功能。\n2.可视化CNN模型的方法\n根据其内部的工作原理，大体上可以将CNN可视化方法分为以下三类：\n\n初步方法：一种显示训练模型整体结构的简单方法\n基于激活的方法：对单个或一组神经元的激活状态进行破译以了解其工作过程\n基于梯度的方法：在训练过程中操作前向传播和后向传播形成的梯度\n\n下面将具体介绍以上三种方法，所举例子是使用Keras深度学习库实现，另外本文使用的数据集是由“识别数字”竞赛提供。因此，读者想复现文中案例时，请确保安装好Kears以及执行了这些步骤。\n1初步方法\n1.1 绘制模型结构图\n研究者能做的最简单的事情就是绘制出模型结构图，此外还可以标注神经网络中每层的形状及参数。在keras中，可以使用如下命令完成模型结构图的绘制：\nmodel.summary()\n\n_________________________________________________________________\nLayer (type)                 Output Shape              Param #   \n=================================================================\nconv2d_1 (Conv2D)            (None, 26, 26, 32)        320       \n_________________________________________________________________\nconv2d_2 (Conv2D)            (None, 24, 24, 64)        18496     \n_________________________________________________________________\nmax_pooling2d_1 (MaxPooling2 (None, 12, 12, 64)        0         \n_________________________________________________________________\ndropout_1 (Dropout)          (None, 12, 12, 64)        0         \n_________________________________________________________________\nflatten_1 (Flatten)          (None, 9216)              0         \n_________________________________________________________________\ndense_1 (Dense)              (None, 128)               1179776   \n_________________________________________________________________\ndropout_2 (Dropout)          (None, 128)               0         \n_________________________________________________________________\npreds (Dense)                (None, 10)                1290      \n=================================================================\nTotal params: 1,199,882\nTrainable params: 1,199,882\nNon-trainable params: 0\n还可以用一个更富有创造力和表现力的方式呈现模型结构框图，可以使用keras.utils.vis_utils函数完成模型体系结构图的绘制。\n\n1.2 可视化滤波器\n另一种方法是绘制训练模型的过滤器，这样就可以了解这些过滤器的表现形式。例如，第一层的第一个过滤器看起来像：\ntop_layer = model.layers[0]\nplt.imshow(top_layer.get_weights()[0][:, :, :, 0].squeeze(), cmap='gray')\n\n一
…
